project/ProductRecommendation/trained_model.pt (torch, 6979 bytes, 4 tensors)

bias f4 [64]
-0.038683172 -0.07366182 -0.09472679 -0.04758758 -0.06902669 -0.05872513 -0.0063330447 -0.10015372
-0.11157107 -0.043584947 -0.016348088 -0.076790854 -0.06934973 -0.0720536 -0.09712186 -0.09699981
-0.08420159 -0.05394369 -0.034877975 -0.07802322 -0.086329564 -0.043489613 -0.036324687 -0.0659426
-0.09786865 -0.06660386 -0.088880435 -0.09384018 -0.08356658 -0.050892524 -0.04983733 -0.026648052
-0.04703875 -0.059090756 -0.048735064 -0.0982787 -0.05830036 -0.03417006 -0.07658719 -0.104208656
-0.07607259 -0.05300668 -0.037416354 -0.080050044 -0.03843849 -0.069831684 -0.071629904 -0.05240444
-0.08016635 -0.054302827 -0.07712868 -0.066612884 -0.035065103 -0.07017508 -0.058321755 -0.021959959
-0.04429972 -0.051374502 -0.021070005 -0.057279613 -0.06005193 -0.06616364 -0.061268065 -0.07331001
00000000: 3f72 1ebd 02dc 96bd 1f00 c2bd 32eb 42bd
00000010: de5d 8dbd c389 70bd 6e85 cfbb 651d cdbd
00000020: 607f e4bd 2186 32bd 6dec 85bc 8644 9dbd
00000030: 3b07 8ebd d690 93bd d3e7 c6bd d6a7 c6bd
00000040: e271 acbd 0ff4 5cbd 35dc 0ebd a3ca 9fbd
00000050: 8ecd b0bd 2a22 32bd 32c9 14bd ea0c 87bd
00000060: 5c6f c8bd 9b67 88bd f206 b6bd 482f c0bd
00000070: f524 abbd ae74 50bd 3a22 4cbd 044d dabc
00000080: b4ab 40bd 2609 72bd 6b9e 47bd 5846 c9bd
00000090: 5ccc 6ebd e8f5 0bbd bfd9 9cbd 596b d5bd
000000a0: f2cb 9bbd 881d 59bd e441 19bd 47f1 a3bd
000000b0: ae71 1dbd ea03 8fbd b3b2 92bd 0aa6 56bd
000000c0: 412e a4bd a46c 5ebd a4f5 9dbd 566c 88bd
000000d0: 6da0 0fbd f4b7 8fbd cbe2 6ebd 5fe5 b3bc
000000e0: a073 35bd 126e 52bd 019b acbc 079e 6abd
000000f0: 03f9 75bd cd80 87bd 39f4 7abd 8f23 96bd

weight f4 [64, 2]
-0.15805656 0.13003397 -0.012674372 0.056766775 -0.11256574 0.2435197 -0.15224504 -0.05920245
-0.027769964 -0.06345917 -0.16978988 -0.16257316 0.13767219 -0.27365887 -0.11926272 0.11975639
0.051682875 -0.17714053 0.12774515 0.15727246 0.1942765 0.2675089 -0.047853187 0.039481927
-0.3015632 0.27146798 -0.120846175 0.18892829 -0.17833878 0.07226543 -0.13282797 -0.043048795
0.118057124 -0.07348078 -0.111623935 -0.2543608 0.16891268 -0.19105583 0.20123067 0.14540462
-0.018148601 -0.095771186 -0.24734618 -0.08137079 -0.24755049 0.15295224 -0.04881603 0.13941655
-0.04659491 0.07568085 0.15974462 0.16168405 0.051101487 0.12468527 -0.15884806 0.06359356
-0.029574124 -0.23098986 0.25822228 0.041858487 0.26686642 -0.009160581 0.1585438 -0.19072247
0.19199692 0.29454315 0.03462635 -0.15198036 -0.0037515918 -0.18270877 0.04244375 -0.1707551
-0.08966967 0.08119745 0.2006104 -0.14096144 -0.20299952 -0.006537998 -0.15577018 0.13584512
-0.070348226 0.030483298 -0.100791745 0.112736665 0.024757354 -0.109236784 -0.11500823 -0.0137139205
-0.087470695 -0.1396167 0.007851927 0.17525433 0.12978056 -0.09882698 -0.19180876 -0.10277641
0.088256046 0.20600332 -0.010308717 0.20660771 -0.04798654 0.139286 -0.0667317 0.07159892
-0.29823056 -0.2211057 -0.01907846 -0.2283193 0.21537293 -0.22295539 -0.1266536 -0.32876074
-0.06557597 0.10019841 -0.22155412 -0.12831827 0.16029076 0.11458136 0.080352865 0.33804083
0.015446768 -0.0019247424 -0.0024468412 0.10281947 0.16330107 -0.10110907 -0.027417123 0.1757297
00000000: 94d9 21be a027 053e 2ba8 4fbc 4784 683d
00000010: de88 e6bd 3a5d 793e 20e6 1bbe 457e 72bd
00000020: d67d e3bc e2f6 81bd 66dd 2dbe 9479 26be
00000030: f0f9 0c3e 041d 8cbe 0340 f4bd d742 f53d
00000040: 6cb1 533d 5464 35be a0cf 023e 080c 213e
00000050: 6bf0 463e edf6 883e b401 44bd cdb7 213d
00000060: 7e66 9abe dafd 8a3e 337e f7bd 6b76 413e
00000070: 719e 36be e6ff 933d 0e04 08be ef53 30bd
00000080: efc7 f13d 177d 96bd 179b e4bd 943b 82be
00000090: 72f7 2c3e 24a4 43be 6a0f 4e3e f3e4 143e
000000a0: 60ac 94bc af23 c4bd 5148 7dbe bba5 a6bd
000000b0: e07d 7dbe 839f 1c3e 51f3 47bd 36c3 0e3e
000000c0: 4eda 3ebd 90fe 9a3d 1894 233e 8190 253e
000000d0: cb4f 513d fe5a ff3d 11a9 22be 573d 823d
000000e0: 6f45 f2bc 9b88 6cbe b635 843e ce73 2b3d
000000f0: b7a2 883e 4316 16bc 4e59 223e c04c 43be
00000100: d79a 443e 5cce 963e 5cd4 0d3d bda0 1bbe
00000110: 44dd 75bb 0218 3bbe 7fd9 2d3d 6dda 2ebe
00000120: bba4 b7bd d94a a63d d06c 4d3e 3258 10be
00000130: 1bdf 4fbe b43c d6bb 3882 1fbe fc1a 0b3e
00000140: bb12 90bd 1cb8 f93c e76b cebd 7be2 e63d
00000150: efcf ca3c 89b7 dfbd 6f89 ebbd 5ab0 60bc
00000160: d623 b3bd aef7 0ebe 5ea5 003c df75 333e
00000170: 32e5 043e cd65 cabd 8469 44be 707c d2bd
00000180: 96bf b43d 89f2 523e e5e5 28bc f990 533e
00000190: 898d 44bd fda0 0e3e a1aa 88bd 74a2 923d
000001a0: adb1 98be 8869 62be 6e4a 9cbc 89cc 69be
000001b0: b98a 5c3e 6b4e 64be 7bb1 01be 5453 a8be
000001c0: b24c 86bd d334 cd3d 15df 62be dd65 03be
000001d0: 4323 243e a2a9 ea3d 0b90 a43d b013 ad3e
000001e0: 7114 7d3c a347 fcba 2f5b 20bb 0493 d23d
000001f0: 6538 273e 4612 cfbd e099 e0bc 7df2 333e

bias f4 [3]
-0.014976001 -0.011685158 0.017208323
00000000: e75d 75bc 1b73 3fbc 78f8 8c3c

weight f4 [3, 64]
-0.0030952431 0.2363193 0.06735388 -0.21596931 -0.007637846 -0.07543537 0.1664683 -0.103578895
-0.010125482 -0.013574878 0.20792413 0.16524561 0.14706187 -0.15034588 -0.24369703 0.16594368
-0.116939396 -0.04718635 0.001009459 0.16614547 -0.16511112 -0.2029458 -0.18067187 -0.1921942
0.031883724 -0.085464574 -0.07714805 0.2122941 0.21103172 -0.23948616 -0.14858873 0.10867008
0.025582682 0.15141518 0.054244995 0.013986437 -0.19816041 -0.28843173 0.023349747 0.032646712
0.14289287 -0.028803999 0.15023589 0.08171999 0.085055076 0.15184732 0.15593284 0.16682203
-0.14830124 0.13382965 0.1350859 -0.29395503 -0.24224515 -0.13258758 -0.24767278 0.06996408
-0.088404104 0.12495933 -0.062074866 0.17150158 -0.23473224 0.1988666 0.02337732 -0.1343357
-0.26178882 0.15990531 -0.1522476 0.07905696 -0.09322371 -0.031986218 0.17510311 0.15855974
0.19704321 -0.20524879 0.0024625505 -0.2767165 -0.20767657 -0.12325416 0.1887851 -0.083753265
-0.122128084 0.051325276 -0.2408855 -0.20913753 0.05478988 0.06304404 0.16837068 0.1497222
-0.20326562 0.1850421 0.11266224 0.1764248 0.22921097 0.20548993 -0.21181569 0.11224458
0.13805808 0.03519005 -0.17237513 -0.025566781 0.004756309 -0.07725863 -0.25658673 0.07550831
0.035219185 -0.22496079 0.10906308 -0.029732646 0.11204109 0.038718127 -0.05992682 0.04410544
0.121450335 0.057078455 -0.051605288 -0.013104547 -0.078796916 -0.1963056 0.18794793 0.14767097
-0.09846747 0.22147182 -0.09076754 0.02773567 0.07051327 -0.13235995 0.061214305 -0.17417592
0.07199914 0.11140277 -0.15256242 0.1923828 -0.0656555 0.1125356 -0.11677054 0.17254113
0.09805911 0.17713545 -0.14248422 0.15800744 -0.019929586 0.27924487 -0.053115055 -0.1105869
-0.047532737 0.19672604 0.26386124 -0.19250062 0.19687785 -0.26044127 -0.33566815 0.017265048
-0.11543632 -0.03623219 -0.05617571 0.24512735 0.13278043 -0.0003278752 -0.07335301 -0.049411476
0.083024696 0.068766005 0.1913129 -0.048780836 0.22385143 0.058689866 -0.09544623 0.059365496
0.13712023 -0.12616195 -0.16587068 -0.09865398 -0.20911182 -0.1103161 0.11574539 -0.17732789
0.16366476 -0.1445999 0.16757758 -0.15052983 0.1277267 0.09782431 0.13360402 -0.17583625
-0.03964401 -0.25106946 -0.19265749 0.16853607 -0.03189949 -0.16849741 0.08971777 0.04517889
00000000: 90d9 4abb b0fd 713e d5f0 893d 0f27 5dbe
00000010: e546 fabb dc7d 9abd ab76 2a3e 2c21 d4bd
00000020: 5ae5 25bc 2a69 5ebc 10ea 543e 2536 293e
00000030: 6397 163e 45f4 19be b78b 79be 24ed 293e
00000040: ec7d efbd 7946 41bd d34f 843a 0a22 2a3e
00000050: e412 29be 06d1 4fbe 0c02 39be 8ece 44be
00000060: 8298 023d 0d08 afbd ccff 9dbd a063 593e
00000070: b318 583e dc3b 75be a527 18be 6b8e de3d
00000080: c692 d13c 950c 1b3e 0030 5e3d 5e27 653c
00000090: 90ea 4abe 53ad 93be f847 bf3c 8fb8 053d
000000a0: 8252 123e 5df6 ebbc 70d7 193e cf5c a73d
000000b0: 5b31 ae3d dd7d 1b3e dcac 1f3e 65d3 2a3e
000000c0: 48dc 17be a40a 093e f553 0a3e 4681 96be
000000d0: 1d0f 78be 0ac5 07be ef9d 7dbe 5449 8f3d
000000e0: 360d b5bd adea ff3d 3742 7ebd 1c9e 2f3e
000000f0: a65d 70be b0a3 4b3e cb81 bf3c 4c8f 09be
00000100: 2f09 86be 38be 233e cbe6 1bbe 9ee8 a13d
00000110: 13ec bebd fb03 03bd 3b4e 333e 7c5d 223e
00000120: b2c5 493e bd2c 52be be62 213b c9ad 8dbe
00000130: 2ba9 54be ad6c fcbd e250 413e d586 abbd
00000140: 4a1e fabd 743a 523d b0aa 76be 2628 56be
00000150: 5a6b 603d 3c1d 813d 5d69 2c3e c750 193e
00000160: dd24 50be ad7b 3d3e 76bb e63d b4a8 343e
00000170: 48b6 6a3e f46b 523e 36e6 58be 7de0 e53d
00000180: 195f 0d3e 7123 103d 1b83 30be 6d71 d1bc
00000190: d0da 9b3b c639 9ebd 565f 83be 1aa4 9a3d
000001a0: fe41 103d 1f5c 66be 775c df3d e191 f3bc
000001b0: cd75 e53d e696 1e3d d375 75bd e8a7 343d
000001c0: f4ba f83d 19cb 693d 1160 53bd 74b4 56bc
000001d0: 4760 a1bd 5604 49be 6c75 403e 0f37 173e
000001e0: 50a9 c9bd 82c9 623e 55e4 b9bd ea35 e33c
000001f0: 4369 903d 5e89 07be dabb 7a3d 2c5b 32be
00000200: 4974 933d 2327 e43d 5339 1cbe ffff 443e
00000210: 6476 86bd 1179 e63d 6525 efbd 9fae 303e
00000220: 37d3 c83d ff62 353e 62e7 11be b4cc 213e
00000230: 5f43 a3bc 2ff9 8e3e 2c8f 59bd 627b e2bd
00000240: b0b1 42bd 8d72 493e d218 873e e21e 45be
00000250: 599a 493e 8f58 85be b2dc abbe 6e6f 8d3c
00000260: e169 ecbd 3468 14bd 8018 66bd aa02 7b3e
00000270: 98f7 073e aae6 abb9 1a3a 96bd b063 4abd
00000280: da08 aa3d 31d5 8c3d 87e7 433e 6ace 47bd
00000290: 4f39 653e c964 703d 5079 c3bd 3c29 733d
000002a0: 3f69 0c3e 9930 01be 01da 29be 190b cabd
000002b0: 6921 56be 68ed e1bd eb0b ed3d 7195 35be
000002c0: bc97 273e ff11 14be 7599 2b3e 7e24 1abe
000002d0: caca 023e 1d58 c83d 7ecf 083e 6b0e 34be
000002e0: c261 22bd 2d8c 80be 0148 45be b894 2c3e
000002f0: 0aa9 02bd 968a 2cbe f3bd b73d 800d 393d
